data.pth (torch, 5463 bytes, 6 tensors)

l1.weight f4 [8, 58]
00000000: 750a e63e 3299 47bd 68e9 e63f 3274 683e
00000010: 4d1f bf3d a106 19bd 74a6 493f 4522 483f
00000020: 9a39 c1bd e0e7 1f3f 395b 7d3e 035d 8e3f
00000030: 714d 473f 660b 613e d9ac 64be 1e07 3c3d
00000040: 0da2 f23e b67d 6ebe ff3a 513c dd41 253f
00000050: e82f 3e3f af10 f43d 4107 0540 9dfb 0640
00000060: ec49 b03f a7bb 053f c413 8f3e d37a a53d
00000070: fb0c 463f 7038 4f3e a505 5b3e b1d6 6e3e
00000080: 088f 713e 09a7 bf3e 7488 483e 65c5 e83e
00000090: bc71 593f ce42 1340 325c b13f 0785 1b3e
000000a0: b18c 403e c2a0 843c 9e46 683e 7879 50be
000000b0: 7292 ac3e bdf8 d1be 40f5 ac3b 031f 5b3f
000000c0: 7957 a33e f989 ee3f 07f9 3d3f cbf7 083f
000000d0: daa1 ea3e 7722 553d f97d 863f a240 193d
000000e0: 500a 703e 079c a23e d3e8 913f 627b 0540
000000f0: 4a84 0f40 6413 a83f 3a3e f4be 30a9 353f
00000100: a66d 4240 4f17 7ebf 9ca4 c03e 5c5c 3d40
00000110: ea0a db3e 6155 9a3f 6d69 973f 15ab 573f
00000120: 56d9 5f3e ecb2 ee3f 244b 2c40 b1e8 903d
00000130: adec 603f cb41 983f 3df9 4140 88ec f73e
00000140: b973 3440 b932 3340 9f3d 0b40 5473 903f
00000150: f549 2d3f f0ef 07bf 9ac2 153f bc51 9c3f
00000160: 7870 c83e ef14 fa3e 235d a13f 8041 cd3f
00000170: e575 963e 23d5 aa3f 9593 3c40 577c 313f
00000180: 6b74 cb3f 3bc1 cfbe 55a1 f23e f9c5 823f
00000190: 841d efbe f5b4 a03e cdc4 b53f f0a4 ce3d
000001a0: fbf6 b73f 5921 9a3f d385 ab3e b296 0940
000001b0: e9fe 94bc 2f0c e63e d770 c6bd dce5 173f
000001c0: 2660 5240 5141 d83f 9d3d 0540 0e47 ea3e
000001d0: afd4 2a3d 28b3 7cbe 2877 f63f b6f0 903f
000001e0: bca4 0cbf fbf7 033e 0b57 0640 e180 9e3f
000001f0: d198 b23e affb 8bbd 76b8 863e dd2a a73e
00000200: b6d2 3d3f c597 7abe 65f3 4e3e dc0a aa3c
00000210: de59 f83f dc41 a03d bc58 ee3c 3542 5a3f
00000220: 83f9 0740 9aba 893e 2b85 1e40 36f1 1f40
00000230: f4d5 0e40 ebee 193f b316 263f 2ecb 14bf
00000240: ea55 1e3f 5bdd 753d 8fd0 18bb bd5b f33d
00000250: f185 c63e b99e 763e 44e4 a13e 53ee cd3f
00000260: 6750 1440 976c c9bd ccad 803f 7975 ddbe
00000270: f8f2 753f bd56 53bd 2ca5 f7be afc1 3fbd
00000280: 47d8 973e 78bf a1be c842 5dbf 9d6c 073e
00000290: 33ef 223e b24b e83f b4cb a8be 2db4 273e
000002a0: 3742 733d ff3b ce3e d2c1 60bc 1bae 5b3f
000002b0: 4d43 cf3f 12ee 023f 19b7 3c3d 7645 f73b
000002c0: 5b56 243f 2b35 873f dd7a 1c3f cc7b 813f
000002d0: 851c 0e3f 9b1c 17bf c8ff ed3f e744 b53e
000002e0: 8630 873f 71f3 443f 38e8 7dbe 8380 963e
000002f0: 98d0 d63f 1695 0f3e 7d88 8c3e 2b2c 393f
00000300: 441e cdbd 7d9d 66be 07a6 153f 9145 823e
00000310: ca24 a43e 5fbb bd3e 089d babd 683f d03d
00000320: 682b 9c3f 8c8a 223f 9f7c a73e f7c4 233e
00000330: defd db3d c8b5 5a3f a9bb 813e 54cd f43f
00000340: 76fb 673f 3fd1 6ebf 95bb 163f 9000 2bbf
00000350: e303 ab3e 418e 0c3f 9e6b c9be 6cd6 df3d
00000360: d821 183f dc05 d33e 415c 9f3e ca4f d73e
00000370: 7d8f ea3f c54f 083f e940 393f d3b6 233f
00000380: f39d 383f dd2e fd3e ff70 343e 86d8 413f
00000390: c992 583f a1ba 0a3f ea61 863f 842b d8be
000003a0: bacf a03f a911 9f3f 36de 893f 377a 923f
000003b0: 67b6 c93f 7696 c83f d5c8 4c40 8550 8f3e
000003c0: b155 6d3f 26bc 2a40 b1f6 2a3f 4f5c b73f
000003d0: 8469 b23c 4e16 bf3e 9222 1e3f ba34 cc3f
000003e0: 237a 3040 41ab 1740 0a65 5d3f 3299 7a3e
000003f0: ca7e 4540 7989 c73f dee4 833f 87bb 803f
0.44929853 -0.048730083 1.803998 0.22700575 0.09332142 -0.037359837 0.7876961 0.7817729
-0.09434815 0.6246319 0.2474183 1.1122135 0.7785254 0.21977004 -0.22331561 0.045905225
0.4738926 -0.23290142 0.012770413 0.64553624 0.7429185 0.11917245 2.0785677 2.1091073
1.3772559 0.5223946 0.27944767 0.080800675 0.77363557 0.20236373 0.21388872 0.23324086
0.23589718 0.37432125 0.19583303 0.454631 0.8493917 2.3009524 1.3856261 0.15187465
0.1880367 0.016189937 0.22683188 -0.20358837 0.3370548 -0.41010085 0.0052782595 0.85594195
0.31902674 1.8635856 0.7420811 0.535031 0.45826608 0.05203482 1.0507194 0.037415154
0.23441434 0.31759664 1.1399177 2.0856557 2.2424493 1.3130918 -0.47703725 0.70961285
3.0379424 -0.99254316 0.37625587 2.9587622 0.42781764 1.2057306 1.1829048 0.84245425
0.21860251 1.8648353 2.6920862 0.07075632 0.8786114 1.1895078 3.0308373 0.48422647
2.8195632 2.7999709 2.175636 1.1285195 0.67690974 -0.5310049 0.58500063 1.2212443
0.39148307 0.48844096 1.2606548 1.6035614 0.2938682 1.3346294 2.9465077 0.6933035
1.5894903 -0.4057711 0.47388712 1.0216666 -0.46702206 0.3138806 1.4200684 0.10090053
1.4372247 1.2041427 0.33500537 2.1498227 -0.018187957 0.4493117 -0.09689491 0.5933511
3.2871184 1.6894933 2.0818856 0.45757335 0.041706737 -0.24677718 1.9255114 1.1323459
-0.54938865 0.12887566 2.0990627 1.2383081 0.34882215 -0.06835114 0.26312608 0.3264989
0.74149644 -0.24471958 0.20210035 0.020757131 1.9402425 0.07825062 0.029095046 0.85257274
2.124604 0.26900178 2.476878 2.4990973 2.2318087 0.60130185 0.64878386 -0.5812253
0.61849844 0.060025554 -0.002331767 0.11882732 0.38774064 0.24083985 0.31619465 1.6088356
2.3174074 -0.09835165 1.0053039 -0.43253687 0.96073866 -0.051596392 -0.48368204 -0.04681557
0.29657194 -0.31591392 -0.86430025 0.13225026 0.1591156 1.81481 -0.32967913 0.16377325
0.05938932 0.40280148 -0.013718085 0.8581254 1.6192414 0.51144516 0.046073053 0.007546122
0.6419427 1.05631 0.61124974 1.0115905 0.5551227 -0.59028023 1.8593683 0.3540413
1.0561683 0.7693396 -0.24795616 0.29394922 1.6782408 0.14021716 0.27447882 0.7233302
-0.10015538 -0.22521015 0.5845646 0.254437 0.32059318 0.37057015 -0.091119826 0.10168344
1.2200747 0.63492656 0.32712266 0.15993105 0.10741781 0.85433626 0.25338486 1.9125161
0.90618074 -0.93288034 0.5887998 -0.66797733 0.33401403 0.5490456 -0.39339918 0.109295696
0.5942664 0.41215408 0.31125072 0.42053062 1.8325039 0.5324672 0.7236467 0.6395084
0.7211601 0.49449816 0.1762123 0.75721014 0.84598976 0.54191023 1.0498631 -0.422207
1.2563393 1.2427264 1.0770938 1.1443547 1.575879 1.5670917 3.1997578 0.2799112
0.9270888 2.6677337 0.6678267 1.4325045 0.02177883 0.37321705 0.617715 1.5953591
2.7574546 2.3698275 0.864823 0.24472502 3.0858636 1.5588828 1.030422 1.0057229

l1.bias f4 [8]
00000000: e2f3 4040 415a 2d40 a46f ec3f f647 3140
00000010: 5e78 4240 04eb 7140 e8c7 3b40 389a 5740
3.0148854 2.7086337 1.847157 2.7700171 3.0385966 3.7799692 2.9340763 3.3687878

l2.weight f4 [8, 8]
00000000: 286e 5340 f371 0e3f 9030 0140 9277 9ebc
00000010: 20bb 3640 03bc 6140 64fb 0640 0e08 2d3f
00000020: c7a9 0540 5872 6b40 2bbd 3c40 e119 353f
00000030: ca2e ef3e ed66 c33f ed6b 2740 8e1e 4940
00000040: d42f fdbd 9d57 2f40 ab30 b73f a584 9040
00000050: 8bfb 8240 c5e3 5e40 2214 8f3f acd5 b33f
00000060: 1066 2a40 02f4 4540 1ca2 3a40 2c53 eb3e
00000070: acc2 c53f fb55 1240 7704 ecbe 83c9 d93f
00000080: 1e95 553d 4c0d 4a40 2c49 ec3e 28ba 163e
00000090: ae7b 4740 d714 053e 20c7 9e3f 8977 2040
000000a0: 08dd f23f 2b6b 323f 4bc6 d5bd 18a9 673f
000000b0: e093 8c40 8595 1140 9543 9140 2ccc 5d40
000000c0: a3a2 ea3e c937 8d3f e905 993f fbbe 4940
000000d0: 950d dd3f 3378 9c3f b702 6540 263a 1a40
000000e0: 8360 6c40 5170 303f 7dd2 0fbf 0549 0340
000000f0: d97e d73f af5f 0940 016c 2b3f 6afe 1c40
3.3035984 0.5564262 2.018589 -0.019344125 2.8551712 3.5271003 2.1090937 0.67590415
2.0884874 3.678854 2.949046 0.70742613 0.46715385 1.5265785 2.6159623 3.14249
-0.12362638 2.7397225 1.4311727 4.516192 4.093206 3.482652 1.1178019 1.4049582
2.6624794 3.093018 2.9161444 0.45961893 1.5450034 2.2864978 -0.46097156 1.7014621
0.052144162 3.1570616 0.46149576 0.1471945 3.1169238 0.12996231 1.2404518 2.5072958
1.8973703 0.69694775 -0.10438212 0.9049239 4.393051 2.274751 4.5394998 3.4655867
0.45827207 1.1032649 1.1954929 3.1522815 1.726977 1.2224182 3.5782907 2.409799
3.6933906 0.6892138 -0.56180555 2.0513318 1.6835586 2.146465 0.66961676 2.4530282

l2.bias f4 [8]
00000000: 3514 813f c0be 003f 1144 983f fbb1 b23f
00000010: f2e9 1d3f 95f9 3d3f 768d b83e a80d a13f
1.0084292 0.5029106 1.1895772 1.3960565 0.616851 0.74208957 0.36045426 1.2582293

l3.weight f4 [13, 8]
00000000: 7657 20bf 224b 8abf bd78 b4bf 1e7b 08bf
00000010: 81a2 54c0 5db3 dcbf 1df1 4bbf 1916 11bf
00000020: 7557 42c0 9953 3ac0 81e0 933d 0936 04c0
00000030: 600d 33c0 4bfb 32bf 5af9 523f cffe 38be
00000040: f7eb 383e 3f5a c4bf 413f 503e f72d 8f3e
00000050: 17ab 89bf 8c10 2fc0 cb70 2cc0 524b 2fc0
00000060: 0af8 71be 8803 6fc0 0c01 63bf 7363 27c0
00000070: 0728 1ac0 260f b43e 3e55 69bf 5239 83be
00000080: 97a2 b0bf aa6e 00c0 1061 d8bf 84fa 12bf
00000090: a8d8 163f 23af 79bf e592 36c0 b446 13bf
000000a0: 76ed abbf 5e56 b8be c4af 3ac0 8f83 00c0
000000b0: d226 f83e 5c68 913c 8787 6abf 633f 3fc0
000000c0: 7991 a43e 76d7 0d3f fca7 f6bf 4774 af3e
000000d0: deb5 2ec0 915b 54c0 e598 44c0 11dd 5abc
000000e0: 8c6b b6bf 1aa5 623e 6685 b3bf 67ef 453e
000000f0: 5b99 073f be14 62c0 d412 94bf 1602 36c0
00000100: b71f 21c0 0de6 8fbf 6f95 dbbf e1ce 41c0
00000110: 3d42 23bf 8c52 02be 0a19 b4be c4c4 49bf
00000120: f0dd 54bf 113a cdbf db12 06bf 3f97 9abf
00000130: d695 04bf 8551 b6bf fe74 dfbe cca0 69c0
00000140: 5928 913d 7060 da3e 7d72 7ac0 cf82 f1be
00000150: a5be 13bf bed3 dfbf a34a 2cbf 68fe 19c0
00000160: 9f87 ea3e 9bd9 e6bf 873d 43c0 e17b f73d
00000170: 8866 97bf 6cbb 14bf f877 8dc0 3f65 403f
00000180: ef93 b7bf 402c 2dc0 a496 583f 8aa1 11bf
00000190: 9f5c 74bf 417e 81c0 4251 eabe 2765 7dbe
-0.62633455 -1.0804179 -1.4099346 -0.5331286 -3.3224185 -1.7242237 -0.79664785 -0.56674343
-3.036588 -2.9113524 0.07220555 -2.065798 -2.7976913 -0.6991469 0.8241173 -0.18065952
0.18058763 -1.5340041 0.2033663 0.27964756 -1.0755337 -2.735385 -2.6943843 -2.7389722
-0.23629776 -3.7345905 -0.8867347 -2.615445 -2.408693 0.35167807 -0.91145694 -0.2562967
-1.3799618 -2.0067544 -1.6904621 -0.57413507 0.5892434 -0.9753286 -2.8527157 -0.5752976
-1.3431842 -0.36003393 -2.916978 -2.0080297 0.48467118 0.017749958 -0.9161305 -2.9882438
0.32142237 0.5540689 -1.9270015 0.342684 -2.7298503 -3.3180888 -3.071832 -0.01335837
-1.4251571 0.22133294 -1.4025085 0.19329606 0.52968377 -3.532516 -1.1568246 -2.8438773
-2.5175607 -1.1242081 -1.7154979 -3.028252 -0.63772947 -0.12726802 -0.35175353 -0.78815866
-0.8315115 -1.6033345 -0.5237252 -1.2077407 -0.5179113 -1.4243628 -0.43643945 -3.6504393
0.07087774 0.426517 -3.9132378 -0.47170112 -0.57712775 -1.7486494 -0.67301387 -2.4061527
0.45806596 -1.8035158 -3.0506303 0.12084175 -1.1828165 -0.58098483 -4.4208946 0.7515449
-1.4342021 -2.7058258 0.8460486 -0.56887114 -0.9545383 -4.046662 -0.4576512 -0.24745618

l3.bias f4 [13]
00000000: 3ff6 943e ad33 aa3d 80a3 373e 87ae e1bd
00000010: 0e4b 07bf c4db f8bd 9aa6 5fbd 7a74 22be
00000020: 29c4 aebe 6677 3bbf 5333 e6be c2e1 a23e
00000030: 6cea 193f
0.2909412 0.083106376 0.17933464 -0.110196166 -0.528489 -0.12151292 -0.054602243 -0.15864745
-0.34134033 -0.7322906 -0.44961032 0.31812865 0.60123324
