chatbot/pytorch-chatbot-master/data.pth (torch, 5015 bytes, 6 tensors)

l1.weight f4 [8, 54]
00000000: b8f1 3340 2653 8f40 f7d9 6040 4e3e 8bbe
00000010: 4946 aa3e eda1 8f40 d9e1 2440 5856 1440
00000020: c52f 6740 b9a3 1440 281f 8b3d 8a15 e93e
00000030: 7783 ab3f 9cc2 a43f 2111 4b40 a609 943d
00000040: e1e9 3a3e 2d7e 9640 c0c8 d43f 2fd8 b1bd
00000050: fed7 2e40 5581 13be de5c 0dbe 296c a2be
00000060: 2a16 fa3e 3938 9bbe ac9a 1140 4b46 8e40
00000070: ca9c dc3f cd42 7240 862e eb3f faef a43f
00000080: f48e 5f3f c384 6040 849a 7c40 e5c2 e73d
00000090: 3395 ec3f 5545 6740 26a4 1a40 50e4 1a40
000000a0: aa7a e23f 2905 cb3f 8d18 443f 7bd6 4240
000000b0: 8fae 923f f26f 8240 8a9e 4640 93e2 2540
000000c0: 81eb 303f 9913 1540 77db e03d 1e03 d83f
000000d0: 489e 2740 8e57 3e3f ceb3 3b40 44cd 4040
000000e0: 134c 4340 bc25 fc3e 3901 113f fa27 f33f
000000f0: c208 0240 e4c1 0940 78c8 2b40 d476 0e40
00000100: 2406 123f a826 29bd 0865 ac3d f225 fdbd
00000110: 7508 bc3f a913 193e 1106 0d3f bc90 0340
00000120: 2300 9f3e 6a65 303f abef 1c40 4880 443f
00000130: c85f 3b3f 836e e23e 60c7 cc3e cf04 843e
00000140: c629 b63e 7eeb 1540 1cd4 a73e a8f8 c23f
00000150: b893 513f 5d1c d7bd 28c1 a13f 0587 4540
00000160: 9b61 fd3f d076 52bc df1f 0d3f a9ab 2d40
00000170: 5ecf 1140 cee8 0840 20a9 403f 902a de3c
00000180: 2203 53be d3e0 ae3f a40b ef3e 16a5 0940
00000190: 6497 8d40 bb7d 1840 ba13 a93e 1f75 ad3e
000001a0: 2787 eb3d 45b8 933e 69c5 0940 b0d8 693f
000001b0: 0e1f 6740 d9d0 8840 8d7b 6d40 a75a 86be
000001c0: 9906 a93d 933a 9940 7a62 4d40 2bab 2740
000001d0: 7fdf 6240 9d90 2340 3936 bd3e c554 5b3f
000001e0: 2f19 bc3f f303 6f3f 0db7 3e40 491a d23e
000001f0: 930f c43e 388d 9840 7734 f63f bead f1bd
00000200: 9d7d 5f40 634f c7bd 80c2 eebc 6703 2f3c
00000210: 1b75 c43e a0ad 4bbe e81c 5040 a5d5 8540
00000220: 52f2 1640 fc46 5a40 3a89 1040 2fa5 7c3f
00000230: fa1a 723f e942 6340 d541 7340 c73f ae3e
00000240: a8bf 2540 9956 6440 9e6c 4140 0684 3f40
00000250: ed2f 0d40 dedd 943f bcf9 363f 1c5b 3d40
00000260: 19c5 963f 870e 7a40 2fba 9640 8d8d 5140
00000270: 1ba2 4a3f 44e8 1b40 8e64 083f a071 0340
00000280: 7c5e 4240 dfc5 833f 0307 5b40 c8f9 3940
00000290: c978 3740 01f5 b83e 86d5 763e f364 8240
000002a0: 1c46 1240 4e23 0940 d3e7 0c40 3587 0d40
000002b0: 1eab 643f 2e21 56be 89e2 6e3e e2ec c8be
000002c0: 4905 e33f 356e 08be df2d 803f 6cb8 8d40
000002d0: c082 db3f 9866 a73f 9a65 4a40 d31f 993f
000002e0: 96c7 973f 3d26 283f 7c4b 33bd 123b 083f
000002f0: c509 2840 ad61 2340 8c6d 1340 72d5 1240
00000300: 1a31 f83f f862 b1be 2b9a 8f3f 7773 3940
00000310: f6af 0f40 a65a 12be 6cf5 0d40 f73d 0a40
00000320: f3c5 1140 b380 0840 0fde eb3f 34c0 863f
00000330: 3d81 69be 75ee e43f 514c 323d d9a9 1040
00000340: f862 8a40 e004 4040 3fb8 463f 4a4b e63f
00000350: 7a2a 283d bdbf e83f f2fb 0940 a8aa 693f
00000360: 1fb5 9540 d2e3 9040 6f82 7c40 28e6 0840
00000370: 2423 e63f a842 9340 2761 7440 0e1f 1140
00000380: c3db 8340 623f 1040 85d1 7f40 c5c1 6240
00000390: f2ca 6440 986b 5c40 6017 4240 980c 2540
000003a0: 7576 7b40 ec37 9f40 6f40 4c40 d56a 8540
000003b0: 7c04 8440 4f2a 8540 2351 8a40 5b50 8340
000003c0: 3ce1 ce3f 177f 1040 39d5 8940 54c8 8340
000003d0: f620 6a40 654c 3140 4d51 1240 5266 5c40
000003e0: 918b e13f efb0 7c40 8c34 8540 5249 2440
000003f0: d9b6 6640 dc8e 8540 f1c7 8240 19ae 8240
2.8116283 4.4789 3.5133035 -0.27195972 0.33256748 4.4885163 2.5762846 2.31777
3.6122906 2.3224928 0.06793052 0.45524246 1.3399495 1.287189 3.1729205 0.07228403
0.1825328 4.7029023 1.6623764 -0.08683812 2.731933 -0.14404805 -0.13804957 -0.31723145
0.48845035 -0.30316332 2.2750654 4.4460807 1.7235348 3.7853272 1.8373573 1.2885735
0.87327504 3.5081031 3.946931 0.1131647 1.8483032 3.6136067 2.4162688 2.420185
1.7693684 1.586095 0.7659996 3.0443408 1.1459521 4.076165 3.1034265 2.591954
0.6910935 2.3293211 0.109793596 1.6875951 2.6190357 0.7435235 2.9328494 3.0125284
3.0515182 0.4924754 0.5664249 1.8996575 2.0317845 2.1524591 2.6841106 2.2260027
0.5704062 -0.04129663 0.08417708 -0.12360753 1.4690081 0.14948906 0.5508738 2.055709
0.31054792 0.68904746 2.4521282 0.7675824 0.73193026 0.4422494 0.3999586 0.2578492
0.35578746 2.3424983 0.32779014 1.5232134 0.81866026 -0.10503457 1.2637072 3.086366
1.9795412 -0.01284571 0.55126756 2.7136023 2.2782817 2.1392093 0.75258064 0.027119905
-0.20606664 1.3662361 0.4668857 2.150701 4.4247303 2.382674 0.33022863 0.3387842
0.11500388 0.28851524 2.152674 0.91346264 3.6112704 4.275494 3.710666 -0.26241037
0.082532115 4.7884 3.2091355 2.6198223 3.544891 2.5557015 0.3695543 0.85676223
1.4695185 0.933654 2.9799225 0.4103568 0.38293132 4.7672386 1.9234761 -0.11800717
3.4920418 -0.09731939 -0.02914548 0.0106819635 0.38370594 -0.19890451 3.2517643 4.1823297
2.35854 3.4105825 2.2583756 0.9868955 0.9457241 3.5509589 3.800893 0.34033033
2.5898228 3.5677855 3.0222545 2.992433 2.2060502 1.1630208 0.71474814 2.9586859
1.17789 3.9071367 4.7102275 3.2742646 0.79153603 2.4360514 0.53278434 2.0538101
3.0370169 1.029476 3.422303 2.9058704 2.8667471 0.36124423 0.2410489 4.074823
2.2855291 2.1427798 2.2016494 2.2113774 0.89323604 -0.20911095 0.23328604 -0.39243227
1.7735988 -0.1332329 1.0013999 4.4287624 1.7149277 1.3078184 3.1624513 1.1962837
1.1857784 0.65683347 -0.04377316 0.53215134 2.6255963 2.5528367 2.3035612 2.2942777
1.9389985 -0.3464582 1.1218923 2.8976724 2.2451148 -0.14292392 2.2181044 2.160032
2.2777069 2.1328552 1.8427142 1.0527406 -0.22803207 1.7885271 0.043529812 2.2603667
4.324581 3.0002975 0.7762489 1.7991726 0.041056134 1.8183514 2.1560025 0.91276026
4.6783595 4.52781 3.945461 2.1390476 1.7979474 4.6018867 3.8184297 2.2675204
4.1205764 2.2538686 3.997163 3.5430768 3.5748868 3.444067 3.0326767 2.5788937
3.929105 4.9755764 3.1914327 4.169291 4.1255474 4.1614146 4.3224044 4.103559
1.6162486 2.257757 4.307278 4.118204 3.6582618 2.7702878 2.2862122 3.4437451
1.7620717 3.9482992 4.1626644 2.566975 3.6049101 4.173689 4.086907 4.083752

l1.bias f4 [8]
00000000: ea87 a23f e985 9e3f 82a7 c43f 0525 dc3f
00000010: 222c 9b40 4aa6 f83f 3b6e e33f 4689 2140
1.2697728 1.2384616 1.5363619 1.7198797 4.8491373 1.9425747 1.7768015 2.5240035

l2.weight f4 [8, 8]
00000000: 25fe 003f d19e 803e fc91 1abf 55b4 cf3e
00000010: ac38 da40 cfc0 9c3f bc2f df3f e981 b23f
00000020: b9d6 323e f7ba 9cbd f608 473f 71e1 d03f
00000030: a0d2 0e40 0a3a 1540 cc7d 58be 1fbd f43f
00000040: 5a59 fc3f 924c 4c3f a62b 2b40 02d8 0d3f
00000050: 9b04 ae40 dc64 9d3f 1cae 0040 f3af 3940
00000060: 2b1d 07bf ca5e c83f 2f15 093f 6c2a cf3f
00000070: 5f8b 1240 d64d ae3d c4e0 ff3e a446 1a40
00000080: dc6a 413e 90fe 9fbf d1e0 d2be 1844 5e3f
00000090: 7366 0840 927a 8e3f a69a 883f 5aff f13f
000000a0: 0b2e 283e 2c3f f53f 5374 a03e d356 983f
000000b0: f62f 0e40 8eab 6fbf 0974 473f fd26 aa3f
000000c0: 76e9 e93f a922 30be 51d4 f23f 6a63 643c
000000d0: 89d2 2e40 342d 0c40 6f3d c03f a637 383f
000000e0: 2753 ec3f 09c2 bd3f fe7b 1b40 f723 dc3f
000000f0: d2dc 9440 67ce ee3f 7927 373f 61dc ca3f
0.50387794 0.25121167 -0.60379004 0.4056727 6.819418 1.224634 1.7436442 1.3945895
0.17464723 -0.07652848 0.7774805 1.6318799 2.2316055 2.3316674 -0.21141738 1.9120215
1.9714768 0.7980434 2.674539 0.55407727 5.438062 1.2296405 2.0106268 2.901364
-0.5277888 1.5653927 0.5354795 1.6184821 2.2897565 0.0851094 0.4997617 2.4105616
0.1888842 -1.2499561 -0.41187146 0.8682265 2.131253 1.1131155 1.0672195 1.8906052
0.16423814 1.9159904 0.31338748 1.1901497 2.2216773 -0.93621147 0.7791143 1.3293148
1.8274372 -0.17200722 1.8971044 0.013939718 2.7316 2.190259 1.5018748 0.7195991
1.8462876 1.482484 2.429443 1.7198476 4.6519556 1.8656739 0.71544605 1.5848504

l2.bias f4 [8]
00000000: bdf3 383f da89 2c3f c3cb aa3f 79fb 593f
00000010: 98a9 213f a170 493f b1bb 563f 9a34 783e
0.72246915 0.67397845 1.3343433 0.8514934 0.63149405 0.78687483 0.83880144 0.24238816

l3.weight f4 [7, 8]
00000000: b770 6bbf 7bf8 19c0 a4cb 23bf d0ba aebf
00000010: 26d6 0bbe 1694 babf a041 97bf 7e89 56c0
00000020: dbb8 47c0 a9f9 913e 198d 44c0 924a 1ac0
00000030: e117 03c0 6fd9 b9bf 572f 7b3e 4a61 883e
00000040: 7022 7bc0 d83f 173f a5fc 61c0 f79e 89bd
00000050: e649 7e3d 05c1 88bf 2f7c 23bf 561e 5ebe
00000060: 338e 33bf cf06 c6be 1e3f 59c0 46b4 a03d
00000070: b0d0 36bf a1ef 9abd c0be 04c0 77b0 01c0
00000080: a901 6abf e943 6ebf 76d1 33c0 e581 27c0
00000090: 1f2b 1dbd 26b8 f4bf e98a 493e 5066 e9bf
000000a0: 47ca 12c0 4821 05c0 118d 56c0 0da2 75bf
000000b0: c564 cfbf 323e d43e 3722 66bb 7098 97be
000000c0: dc74 3dc0 64f2 31bc cd15 45c0 3cf4 4f3f
000000d0: b849 1cc0 2b6c 153f 9df3 22c0 bc2f 3bbe
-0.91968864 -2.405791 -0.63982606 -1.3650761 -0.1365591 -1.4576442 -1.1816902 -3.3521419
-3.1206577 0.28510788 -3.071112 -2.4108014 -2.0483325 -1.451948 0.24529777 0.26636726
-3.923977 0.5908179 -3.5310452 -0.06719773 0.062082194 -1.0683905 -0.63861364 -0.2169126
-0.70138854 -0.3867707 -3.3944774 0.078468844 -0.7141218 -0.07565237 -2.0741425 -2.0263956
-0.91408783 -0.9307237 -2.8096595 -2.6173031 -0.0383712 -1.9118698 0.19681896 -1.8234348
-2.293596 -2.0801563 -3.35236 -0.95950395 -1.6202627 0.414537 -0.0035115608 -0.29608488
-2.9602575 -0.010861013 -3.0794556 0.8123205 -2.4419994 0.58368176 -2.546119 -0.18279928

l3.bias f4 [7]
00000000: a237 f8be 6343 1ebe e062 e9bd b2a2 e0bd
00000010: a68c 75be f3d9 06be cafa f5be
-0.48479944 -0.15455393 -0.11395812 -0.10968532 -0.23979434 -0.13169079 -0.480429
